x size= 9235
x_test size= 4549
_________________________________________________________________
Layer (type)                 Output Shape              Param #   
=================================================================
conv2d_1 (Conv2D)            (None, 8, 270, 8)         256       
_________________________________________________________________
max_pooling2d_1 (MaxPooling2 (None, 4, 90, 8)          0         
_________________________________________________________________
conv2d_2 (Conv2D)            (None, 2, 45, 16)         17680     
_________________________________________________________________
max_pooling2d_2 (MaxPooling2 (None, 1, 15, 16)         0         
_________________________________________________________________
flatten_1 (Flatten)          (None, 240)               0         
_________________________________________________________________
dense_1 (Dense)              (None, 7)                 1687      
=================================================================
Total params: 19,623
Trainable params: 19,623
Non-trainable params: 0
_________________________________________________________________
Train on 6464 samples, validate on 2771 samples
Epoch 1/10

  32/6464 [..............................] - ETA: 59s - loss: 1.9985 - acc: 0.0938 - f1: 0.0000e+00
  96/6464 [..............................] - ETA: 25s - loss: 2.0137 - acc: 0.1354 - f1: 0.0000e+00
…
