x size= 9235
x_test size= 4549
_________________________________________________________________
Layer (type)                 Output Shape              Param #   
=================================================================
conv2d_1 (Conv2D)            (None, 8, 270, 8)         256       
_________________________________________________________________
max_pooling2d_1 (MaxPooling2 (None, 8, 135, 8)         0         
_________________________________________________________________
conv2d_2 (Conv2D)            (None, 7, 105, 16)        7952      
_________________________________________________________________
max_pooling2d_2 (MaxPooling2 (None, 7, 52, 16)         0         
_________________________________________________________________
conv2d_3 (Conv2D)            (None, 5, 22, 32)         47648     
_________________________________________________________________
max_pooling2d_3 (MaxPooling2 (None, 2, 7, 32)          0         
_________________________________________________________________
flatten_1 (Flatten)          (None, 448)               0         
_________________________________________________________________
dense_1 (Dense)              (None, 7)                 3143      
=================================================================
Total params: 58,999
Trainable params: 58,999
Non-trainable params: 0
_________________________________________________________________
Train on 6464 samples, validate on 2771 samples
Epoch 1/10

  32/6464 [..............................] - ETA: 1:38 - loss: 1.9952 - acc: 0.1562 - f1: 0.0000e+00
  64/6464 [..............................] - ETA: 1:06 - loss: 1.9984 - acc: 0.2188 - f1: 0.0000e+00
…
